data.pth (torch, 8746 bytes, 6 tensors)

l1.weight f4 [8, 110]
00000000: 4407 463c b714 86be 45ed 253f af62 92be
00000010: 68a6 e2bd f2ad c6bd b018 fe3e 3343 f1bd
00000020: ebba c63e 9f86 d1bd 08eb 67bd c610 163f
00000030: 74e5 adbe 636e d13e 29f3 afbe 9b37 2b3e
00000040: 2e1a b0be f317 87be 885e 73be 1981 d23c
00000050: 3025 46bd a851 fd3d 8a20 ffbe 08ac b3bd
00000060: 85df ddbd 3896 463f 9447 23be 68bc 0e3f
00000070: 1fd1 9c3e a08a c23d 865c 27bf c6e6 49bd
00000080: b904 ad3f f721 afbe c83f 2a3f 9a47 213f
00000090: 2d71 8bbe 7b88 173f 443b 133f 0969 3a3d
000000a0: f095 26be 96a4 a03e e989 53bf a7ad c83d
000000b0: 4b1b 103f 9c09 223f 3c4b 5bbd c887 96bd
000000c0: 1c10 36be 3d6e 1a3f ff94 46bf 00e4 81b8
000000d0: b922 7f3e e2dc 4a3f a43f fe3e 4fb1 31bc
000000e0: 5453 00bf 845d d1bd 799f 88be 9030 a6be
000000f0: 7568 f63e 9016 e0be 4d7c c8bd 426f 9f3e
00000100: 8772 b9bd 163b c8be 841e 14be a178 9fbd
00000110: e264 90be e025 06ba 54c0 033f 7524 8abe
00000120: ba79 b13d f452 fd3c c847 2dbf 700f aabd
00000130: 3ce8 c0be e67d 063f 71e3 2c3f 6ca2 2f3f
00000140: d29c a6be c92e 4f3e 7c6b 7a3d 59ac 93bd
00000150: 92a1 043f ef83 503e c9b1 ddbd c845 bb3e
00000160: 1606 83bd 04f5 29be 2cd3 0f3f e9fc 23be
00000170: 28c0 fc3e 162e 06be 3c65 c13e 81b6 033f
00000180: 89c7 20bf eb89 8e3f 0b2c 3e3f b223 87be
00000190: f9e6 ce3e 3f2c 20bf 308f 313f f270 4d3f
000001a0: 4882 83bd d909 cf3e 5be3 adbd 7667 4bbf
000001b0: 35a6 ce3e 6718 dfbd 8f7a 873e b66c debe
000001c0: d512 463f 81ff 45be e35e 8e3b 7279 ba3d
000001d0: 3e25 1f3c 6ba8 83bd bb60 b2be 696a ee3d
000001e0: bc69 82bd b1a7 04bf 6635 fc3c 97a8 b9be
000001f0: 9a86 4cbe 5521 f5bc 7a7d 4fbe e817 fbbe
00000200: a3d0 ebbe 4cf6 44bf 3271 9abd ccd3 113e
00000210: 9339 d2be 6568 d33e 4859 aabd 5d5c 17bf
00000220: b5de 193f d9ed 9f3e 8d8e 043f 5997 5fbe
00000230: 09ff 4fbf d7e9 4e3f 7bf1 0ebc c03a 4dbe
00000240: 9978 4ebe 904a 57be d2ee e23e 22b8 4fbe
00000250: 5d68 4ebe 3b16 573f 6387 e0be 208e 01bd
00000260: 9cc6 b1be ba24 3d3f 8b1c 063f 65ac 673f
00000270: 337a f93e 8211 e6be 23e5 39bc ce97 5dbf
00000280: 3ae0 67bf 5c88 6fbd adc4 9c3e 8116 1abf
00000290: 7804 a8be dc1e 183d bc7f 743f 85ea 5cbd
000002a0: 697c d5be 0138 2d3f 3400 d4bc a574 533e
000002b0: 676e b6be bbc3 0fbf a47c 0a3d 9030 30be
000002c0: ea85 363e cfd3 ecbc 2ad2 16bf 6bac d93d
000002d0: faf1 0c3f 1c21 0f3d 3127 383e 18d9 0f3f
000002e0: 57cf 5cbf 82b8 31bf 5458 eabe 55f3 c7bc
000002f0: 3625 2abf 8a01 4ebd 7822 483f 0b13 68bd
00000300: d560 afbc fbf8 2a3e 4784 633e 5964 5a3f
00000310: d9ee 41be 7648 84be b0e5 3fbd c6d6 6f3f
00000320: d698 36be bbad eabe fae2 0a3f 0571 b43c
00000330: f335 cfbc 2397 d5bc a04a 37bf 568d 3e3f
00000340: ad00 abbe d0bc b8bb 61f0 dabe 06c8 abbd
00000350: 7d4a adbe 800b 593f 6778 0c3e 5a3b c5be
00000360: 834f 03be c8b4 abbe 30da 373e 31ba dbbd
00000370: 2d8c 18bd f5f5 8e3e f1df f33e 6f56 e53e
00000380: 2e4d fe3c 31ad 663e a227 8d3d 804c 553e
00000390: e381 77be a6cd 563e 2a28 993e 9b87 9fbe
000003a0: fc02 40be 5340 6e3d 1c1d 113f 8577 bdbe
000003b0: 333f 113f 5f94 873e a58d c83e bbfa ea3e
000003c0: 8216 5e3b 17cc 5fbe e3c9 bbbd b287 b23e
000003d0: 5062 143c 48f3 42bf 590d 5c3e 5f44 093f
000003e0: f920 843f 9aaa 2cbd 24a7 30bf 5449 90be
000003f0: 4802 853f 98c5 1f3f 7f86 6e3f 5d42 4d3f
0.012086693 -0.2618768 0.6481517 -0.28590915 -0.11066896 -0.09701146 0.4962821 -0.11780395
0.38814482 -0.10230755 -0.056620628 0.58619344 -0.3396412 0.4090453 -0.34365204 0.1672043
-0.34394974 -0.2638546 -0.2376653 0.025696324 -0.04837531 0.1236909 -0.49829513 -0.08773047
-0.108336486 0.77572966 -0.15945274 0.55756235 0.30628297 0.09499097 -0.65375555 -0.04929235
1.3517066 -0.342056 0.6650357 0.6299988 -0.27234784 0.5919263 0.5751231 0.045510326
-0.16268134 0.3137557 -0.8263231 0.097987466 0.56291646 0.6329591 -0.053538546 -0.07350117
-0.17779583 0.6032446 -0.775711 -6.193668e-05 0.2491559 0.7924329 0.4965793 -0.010845496
-0.5012715 -0.10222915 -0.26684168 -0.32458925 0.4812657 -0.43767214 -0.097893335 0.3113957
-0.090550475 -0.3910758 -0.14464766 -0.0778668 -0.28201967 -0.0005117338 0.51465344 -0.2698094
0.086657956 0.030923344 -0.67687654 -0.08303726 -0.3767718 0.52535856 0.6753455 0.6860721
-0.3254152 0.20232691 0.06113766 -0.07210607 0.51809037 0.20362829 -0.108249255 0.36576676
-0.06397645 -0.16597372 0.561816 -0.16014446 0.49365354 -0.13103518 0.37772548 0.51450354
-0.62804466 1.1135839 0.74285954 -0.2639442 0.40410593 -0.62567514 0.6935911 0.80250466
-0.064213336 0.404372 -0.0849063 -0.79454744 0.4036118 -0.10893326 0.26460692 -0.43442315
0.77372485 -0.19335748 0.0043448075 0.09105195 0.009713469 -0.064286076 -0.34839424 0.1164139
-0.063678235 -0.51818377 0.030787181 -0.36261436 -0.19973221 -0.02992312 -0.2026271 -0.49041677
-0.46057615 -0.7693832 -0.075411215 0.1424095 -0.4105955 0.41290584 -0.0831781 -0.5912531
0.6010545 0.3123615 0.51780015 -0.21835078 -0.8124853 0.8082556 -0.008724566 -0.20041943
-0.20163192 -0.21024537 0.4432283 -0.20285085 -0.20156999 0.84018296 -0.43853292 -0.03162968
-0.3472184 0.73884165 0.52387303 0.9049743 0.48726043 -0.44935232 -0.011346134 -0.8655976
-0.9057652 -0.05847965 0.30618802 -0.6019059 -0.3281591 0.037138805 0.9550741 -0.053934593
-0.4169648 0.6766358 -0.025879003 0.20649965 -0.35631105 -0.56158036 0.033810273 -0.17206025
0.17824522 -0.028909592 -0.58914435 0.10628589 0.55056727 0.034943685 0.179837 0.56190634
-0.86253875 -0.6942216 -0.45770514 -0.024408022 -0.6646303 -0.050294437 0.78177595 -0.056658786
-0.021408478 0.16696541 0.22218429 0.8530937 -0.1893877 -0.25836533 -0.046849906 0.93687093
-0.1783174 -0.4583567 0.5425259 0.022026548 -0.02529428 -0.026073044 -0.71598244 0.7443441
-0.33398953 -0.0056377426 -0.4276152 -0.08387761 -0.33845893 0.8478317 0.13717805 -0.38521844
-0.128233 -0.33536363 0.17954326 -0.107288726 -0.037243057 0.27922025 0.4763179 0.44792506
0.031042662 0.22527005 0.06892325 0.20829964 -0.24170642 0.20976886 0.29913455 -0.31158146
-0.18751138 0.058166813 0.5668504 -0.3700525 0.5673706 0.26480386 0.39170566 0.45894417
0.0033887927 -0.21855198 -0.09169366 0.34869152 0.009056643 -0.7615247 0.21489467 0.5361995
1.0322562 -0.042154886 -0.69005036 -0.28180945 1.0391321 0.6241088 0.93173975 0.8017939

l1.bias f4 [8]
00000000: bd57 313f d2c4 433e c8d0 923f ab36 053f
00000010: 6b38 8c3e 6b60 923e e6ff b53e d85a 553f
0.69274503 0.1911805 1.1469965 0.5203654 0.27386793 0.28589186 0.35546798 0.8334174

l2.weight f4 [8, 8]
00000000: 09a5 823f 60de d43f d3c0 fd3e 30fe 8c3f
00000010: 0dc4 d33e a0ba 3ebf 4943 2bbf f3a8 9ebf
00000020: e1af 913e 51b6 46bf df90 823f c3ef 163f
00000030: 6b39 17bf 4ac3 8b3e 2e23 9a3e a2bc 83bf
00000040: 6a91 8a3f f5f8 8d3e 85ff 29be 1c47 943f
00000050: 4838 a73f 77f9 b13f e7b6 c23d 7d16 b5bd
00000060: 6b64 54bf d728 afbe 3bd2 4b3f 478c 01bf
00000070: adfb 99be 17d6 973f 483c ce3f 0d17 cc3f
00000080: 7758 d73d 22e3 e53e 45ca da3f 66fa 743e
00000090: d83e 3cbf de1c 033f 3fca 00be 4e02 92be
000000a0: 17bc cdbd d907 abbf 9191 1c3f dc9d aa3f
000000b0: 5ce4 57bf 00ef 6ebf 42c0 8f3f 38c5 823e
000000c0: 6499 993f 3c11 4dbf 868c 853f 8087 b4be
000000d0: 7dbd 083e a029 38bf b77b 9abf 4b2b a23f
000000e0: b322 e43e 6c56 8dbe f6f9 7a3f 6789 75be
000000f0: ce91 73bf 6da0 223f 9bfa 163e f5fc 3abf
1.0206615 1.6630363 0.49561176 1.1015072 0.41360512 -0.7450352 -0.66899544 -1.2395309
0.28454497 -0.7762194 1.0200461 0.589596 -0.5907199 0.2729743 0.30104965 -1.0291941
1.0825627 0.27729002 -0.16601379 1.1584201 1.3064051 1.3904256 0.09507542 -0.0884218
-0.82965726 -0.34210846 0.7961766 -0.5060467 -0.30074826 1.186221 1.6112146 1.5944535
0.1051492 0.4489985 1.7092978 0.23923644 -0.7353339 0.5121592 -0.12577151 -0.28517383
-0.10045641 -1.336177 0.61159617 1.3329425 -0.84332824 -0.93333435 1.1230547 0.2554109
1.1999936 -0.8010442 1.0433509 -0.35259628 0.13353534 -0.71938515 -1.2069005 1.2669462
0.44557723 -0.27604997 0.9803766 -0.23978196 -0.95144355 0.6352604 0.14744036 -0.7304223

l2.bias f4 [8]
00000000: 5b38 1c3f 5b41 cb3e c3d3 25be 199d fc3e
00000010: 243c 073e 2d6e 7f3f 3c76 493f f6d8 ec3e
0.6102349 0.396983 -0.16194062 0.49338606 0.13206536 0.9977749 0.78696036 0.46259278

l3.weight f4 [15, 8]
00000000: 32bd df3e 2f10 493e de01 9ebe 70ab 29bf
00000010: ce68 033f fbf4 f8be a6ab 1ac0 aea5 5d3f
00000020: 85ec 593f 9733 edbf cb43 093f c9ef acbf
00000030: 23da 9dbf c2bd c6bf cd6b e9bf 86aa 11bf
00000040: e93d 993e a86c 37be 2c50 d63e 18f2 d1be
00000050: 85af 8cbe b1ae 5fbd c81b 97bf 8ae0 bfbf
00000060: 29c9 bf3e daa5 543e ee09 b8be 93ad dabf
00000070: b4da 083f 6c28 00c0 e288 593e e0bd ac3e
00000080: eeef 4cbf 25bc 72bf 0f66 90bd 1e96 8d3f
00000090: 16b5 d4bf 113f 6fbf a377 03c0 cdb8 2abf
000000a0: 3866 39bf aabe 80bf 4c73 b9bf 5a7e 3d3f
000000b0: f193 9bbf 3b72 963f 38ea 93bf c57a 06bf
000000c0: d744 95be 49d4 e9bf b21c e0bd 848d f6be
000000d0: 6c4f dbbf fd18 b0bf 23b6 a33f ff2a 0dbf
000000e0: 5f81 27bf 05a0 bfbe 2658 9bbd a93f af3e
000000f0: c395 3b3f f7c9 fdbf 9cb5 cdbf c71b 383f
00000100: 42fb 17be f7aa 5c3f 320e 8bbf ec81 9fbe
00000110: 3357 b13e 2b9b 523f 064a 0fc0 b81e 95b9
00000120: 5d81 80bf 5df1 18c0 24fb 713e a6e9 913e
00000130: bf91 633e a42b 88bf 3ae6 c8bd e642 cabf
00000140: 4121 963d f8e8 79be fb4f b43e a35c bebf
00000150: 6f8d 26bf 9a94 763e 2869 2d3e 5fed 58bf
00000160: deed 633f 8ca1 40c0 80be 3bbe 6365 debe
00000170: a9c4 213f 9d2c 00c0 052c 083e ebef 11c0
00000180: 1112 983e 61be 7e3f d688 d3bf 3f09 85bf
00000190: 651b 1d3e 84d7 8e3e b785 133f f0fe 243f
000001a0: dfa3 64bf cddd 02be b089 26c0 c9bc 1d3f
000001b0: 8d62 943e 3b2e 533e bc66 893f 629a 85bd
000001c0: 3a1a abbf 538d 0b3f 5928 38bf 2588 ea3e
000001d0: 7aa1 dc3e 1127 efbc 9c26 69bf cb34 2e3e
0.43699032 0.1963508 -0.308608 -0.6627722 0.51331794 -0.48624405 -2.4167266 0.8658093
0.85126525 -1.8531369 0.5361907 -1.3510677 -1.2332195 -1.552666 -1.8236023 -0.56900823
0.29930046 -0.17912543 0.4185804 -0.41005015 -0.2747766 -0.054609958 -1.1805353 -1.4990399
0.3745816 0.20766392 -0.35945076 -1.7084221 0.53458714 -2.0024672 0.21243623 0.33738613
-0.80053604 -0.94818336 -0.07050716 1.1061437 -1.6617763 -0.93455607 -2.054177 -0.66688234
-0.724216 -1.0058186 -1.4488311 0.7402092 -1.2154523 1.175361 -1.1555853 -0.5253108
-0.29154083 -1.8267909 -0.10942973 -0.48154843 -1.7133613 -1.3757626 1.2789959 -0.5514373
-0.6543178 -0.37426773 -0.07585172 0.34228256 0.73275393 -1.982726 -1.6071048 0.71917385
-0.14841941 0.8619837 -1.0863707 -0.3115381 0.3463684 0.8226802 -2.238893 -0.00028442382
-1.0039479 -2.3897316 0.23630959 0.28498572 0.22223566 -1.0638318 -0.09809537 -1.5801666
0.073305614 -0.24405277 0.3521727 -1.487202 -0.6505956 0.24080124 0.16934645 -0.847372
0.8903483 -3.00986 -0.18334389 -0.43436727 0.63190705 -2.002723 0.13298042 -2.2802684
0.29701284 0.99509245 -1.6526134 -1.0393447 0.15342481 0.278988 0.5762591 0.64451504
-0.8931255 -0.12779923 -2.6021538 0.6161619 0.28981438 0.20623104 1.0734477 -0.06523587
-1.3367379 0.5451252 -0.71936566 0.45806995 0.43091947 -0.029193433 -0.9107454 0.17012326

l3.bias f4 [15]
00000000: 2bff 06bf 9bb4 093f 3511 d1be 8abd c4be
00000010: ffc0 613e 0c4d f73e ca49 b83e 45bc ab3d
00000020: 58ca 5dbe 36a4 e03e 262c a4be 203c ccbd
00000030: 053a 14be 37b4 24bd 4559 fabd
-0.52733105 0.5379121 -0.4083344 -0.38425857 0.22046278 0.4830097 0.35993797 0.08385519
-0.2165922 0.43875283 -0.32064933 -0.099724054 -0.14475258 -0.04021093 -0.12224058
